tools/AI_models/Mixed/MixedClassifier/trained_models/cnn_model.pth (torch, 371416 bytes, 8 tensors)

conv1.weight f4 [64, 1, 3]
00000000: 4681 093e 897d bd3e 9ff3 e63e 3967 16bd
00000010: 996c 263f 8e5e 26bf 5017 8b3e 6797 21bf
00000020: 5f2c d0be 9efd 56be 7b02 e73d 7e70 6f3e
00000030: e162 e93e 0334 2abf 4eba 093f 0930 05bf
00000040: 8660 9ebe 11fa 2b3f aba2 363f 9048 f53e
00000050: 66cf 3abf af46 813e bf06 dc3e 3fa8 52bf
00000060: ddcb 0b3f 9e4d e9be ae9f 06bf 5d95 e0be
00000070: ceca 483f 5fef f33e 622f f2be dfe8 dc3e
00000080: e65e b23e 4695 b1bd 71a3 3c3f 988c 5dbf
00000090: 0921 023f 8b1d 5cbf 8e2f e43e 20f3 33bf
000000a0: 5d7c fdbe 42c2 823e 4e07 463e d079 993e
000000b0: 0987 b33e 22e1 0bbf 8462 52be c23c 773e
000000c0: f846 6dbd 5f33 1ebf 5cc0 debe edab cf3e
000000d0: c292 62bf 8bc3 bf3e 174d 433f 6cdf 0a3f
000000e0: 07f4 1dbd 6700 0a3f 78e8 17bf a130 c63e
000000f0: 73e7 08bf 2a81 e83c 56e1 453f 0e91 30bf
00000100: 37c0 31bc 8422 573f 7ef2 0a3f 1414 343f
00000110: 7302 03be 3110 a0be aa9d 163f 4fa2 2f3f
00000120: 0304 ed3e 63a3 5bbf 8ae0 833e ef0e 58bf
00000130: cde6 46bf 2f17 17bf 87fb 113f 7d21 28bf
00000140: ab76 48be f5ef 063e 091b 6bbf fb6b a9be
00000150: 0e55 5f3e 8329 583e b2be d8be 1253 03bf
00000160: 3743 ed3e 1a4d d33e f6a6 f73e f4f9 0a3f
00000170: 924a 6b3e fc89 333e 4cbe 043f 3eee 97bf
00000180: 134d 373f def5 0e3e 3797 eebe 9e01 86bd
00000190: 92e5 05bf 40dc 21bf 62e3 073f 0fd3 5abf
000001a0: 0bb5 a63e c5cd 5ebf d1b3 3e3f 0199 123f
000001b0: 62e8 0b3f ec47 ca3e c70f d33e 550e 37bf
000001c0: 5d66 64bf acd5 15bf cfa1 213f 2e20 ec3e
000001d0: 0cff f93e 56f3 453e b1f7 88be ac0d 3f3e
000001e0: 8c23 693f 351b 8dbe fb94 1abf ac80 c43e
000001f0: e32b db3e 0f3f 17bf a424 80be ad54 a63e
00000200: 193c f1be 3b0c efbd 723a 66bf 64c2 4d3e
00000210: 7f4c f93d 4818 df3e 98a0 233e c5e3 0a3f
00000220: 1c4f 303f c2be 3cbe 417a 073f 7c55 de3e
00000230: a83b cc3d 0982 0e3f 1fe9 263e 7cfa fa3e
00000240: ec7e 4d3f 653c 693c b6e9 eb3d f21a 7dbf
00000250: 9240 473f 8781 bebe ba07 6dbf 9ad3 f63d
00000260: eec3 463c c17e 26be b0ae b9be 48a1 2b3e
00000270: f263 06bf 3557 393f a217 78bf 4269 0cbf
00000280: a5cf 013e 4804 a7be eb8d 12be 73bb 4dbf
00000290: 54ae 223f b498 bd3e 431c 3dbf e04d 49bf
000002a0: 1e26 f53d 8eb9 eb3e e8c5 5b3e 7a2c 223f
000002b0: 2498 b33e c375 4abf 280b fd3e ce13 1ebf
000002c0: 2b2d 20be 5526 f3bc e6fd 19bf 78f0 94be
000002d0: de55 8ebe cf9d 6f3e 50d2 083f 05b0 21bf
000002e0: 62d3 14bf f284 0d3f 08e8 983d 0058 febc
000002f0: 985e 63bf 14ee 183d 05bb 2f3f 4bfa 00bf
0.1342822 0.37009838 0.45107743 -0.036719535 0.65009457 -0.6498803 0.27166224 -0.63121647
-0.40658852 -0.20995185 0.1127977 0.23382756 0.4558325 -0.66485614 0.53799903 -0.5202642
-0.30933017 0.67178446 0.7134196 0.47906923 -0.72972715 0.2524924 0.42973897 -0.82287973
0.54607946 -0.4556703 -0.525874 -0.43863955 0.78434455 0.47643563 -0.47301775 0.43146417
0.34838027 -0.0867105 0.7368689 -0.86542654 0.5083166 -0.8598258 0.4456753 -0.70292854
-0.49508944 0.25538832 0.19338724 0.29975748 0.3506396 -0.546404 -0.20545393 0.24144271
-0.05792901 -0.61797136 -0.43506134 0.40560856 -0.88505185 0.37453875 0.76289505 0.54247165
-0.0385628 0.53906864 -0.59339094 0.38708976 -0.53478163 0.028381903 0.7729696 -0.68971336
-0.01084905 0.8403704 0.54276264 0.70343137 -0.12793903 -0.31262353 0.58834326 0.6860704
0.46292123 -0.85796183 0.25757247 -0.84397787 -0.77695924 -0.5901975 0.57024425 -0.656761
-0.19576518 0.13177474 -0.9183813 -0.33090195 0.2180979 0.21109585 -0.4233299 -0.5129863
0.46340343 0.4126976 0.4836957 0.5428765 0.22977665 0.17533106 0.5185287 -1.1869581
0.7160198 0.13960978 -0.46599743 -0.06543277 -0.5230342 -0.632267 0.53081334 -0.854783
0.3256 -0.8703273 0.7449313 0.57264715 0.54651463 0.39507997 0.41222975 -0.71506244
-0.89218694 -0.5852916 0.63137525 0.461183 0.48827398 0.19331107 -0.26751474 0.18657559
0.91069865 -0.2755982 -0.60383576 0.3837942 0.4280692 -0.59080595 -0.25027955 0.32486477
-0.47116163 -0.11672255 -0.8993293 0.20093685 0.121727936 0.43573213 0.1597923 0.542538
0.6887071 -0.18432143 0.5292092 0.43424594 0.09972316 0.5566717 0.16299866 0.4901923
0.8027179 0.014235591 0.11519186 -0.9886924 0.778329 -0.37208197 -0.92589915 0.120520785
0.012131674 -0.1625929 -0.36266088 0.16760743 -0.52496254 0.7239869 -0.9691106 -0.5484811
0.12676866 -0.32620454 -0.1431195 -0.8036415 0.63547254 0.37030566 -0.7387125 -0.7863445
0.11970161 0.46040004 0.21462214 0.63349116 0.35077012 -0.7908594 0.49422574 -0.6174897
-0.1564223 -0.029681364 -0.60153043 -0.29089713 -0.27799886 0.23400043 0.5344591 -0.6315921
-0.58135045 0.55280983 0.074661314 -0.031047821 -0.88816214 0.037336424 0.68644744 -0.50381917

conv1.bias f4 [64]
00000000: 5625 b63e d14c 17be 6865 ee3d e94a 053e
00000010: f59b ac3d 941d 5c3e 63d3 eebe cbd0 9a3e
00000020: c425 7abd 69c1 3f3e 3b1c ce3d 7dd3 6ebe
00000030: bcd3 84bd 9e24 623e 9f9a 133f b4d2 523e
00000040: 01f1 823e 07a3 d3be 8fe5 6e3e e1c4 6ebe
00000050: 5803 673d 2568 833d d21e de3d fb22 30bd
00000060: 2d63 b3bd a375 efbe 92e0 9e3d fe1b 06bf
00000070: 24e6 843e b12d 46be 22e0 123f ca02 89be
00000080: f56c d63e ed3a 81be 5759 9abb f26f 1bbf
00000090: 8414 bfbe 74ba 1abf 8d51 9cbe 1da2 d43c
000000a0: d1d0 babe 3d41 4ebd 8200 573d 3655 03bf
000000b0: 5982 fc3e 93a0 e5be 7d67 29bf 9df1 6c3e
000000c0: ecca e2bd 78eb 9fbd efdb e6bd 8d44 463e
000000d0: 3ad6 7fbc ca82 7dbb d547 0bbf e68d 6fbe
000000e0: d930 cfbe 47d0 e83d 631d d73d 7313 1c3e
000000f0: f886 99be f2fe 9abc 8abc 053c 6715 ec3b
0.3557536 -0.14775397 0.116404355 0.13016857 0.08428184 0.21495658 -0.4664565 0.3023742
-0.061071172 0.18726124 0.10063978 -0.23322864 -0.064856976 0.22084281 0.5765781 0.2058819
0.25574496 -0.41335317 0.23329757 -0.23317291 0.056399673 0.06416348 0.10845722 -0.04300211
-0.08759151 -0.46769437 0.07757677 -0.5238646 0.25956833 -0.19353367 0.5737325 -0.2675994
0.41880003 -0.2524027 -0.004710357 -0.6071769 -0.3732034 -0.60440755 -0.30530968 0.025956208
-0.3648744 -0.050355185 0.05249072 -0.51301897 0.49318197 -0.4484907 -0.66173536 0.23139043
-0.110738605 -0.07808584 -0.11272418 0.19362088 -0.01561504 -0.0038682693 -0.5440648 -0.23393974
-0.40466955 0.11367851 0.10503652 0.15241794 -0.29985785 -0.018920396 0.008162627 0.0072047

conv2.weight f4 [128, 64, 3]
00000000: f6b1 573e 129e 053e 5611 633c 6bf5 753d
00000010: be62 62be c111 a0be 9001 efbd d0f3 cb3b
00000020: 68b0 da3d d332 2e3d d7f0 23bd dd7b 913d
00000030: 6806 55bc 0fc2 983b 763f 58bd 2123 b73c
00000040: 48f5 55bd b713 e9bd ba09 44bd 05ab 33be
00000050: ccea a2bd b72e 913c 124c fabc 11ba 93bd
00000060: adef 7ebd 0c2d 89bb 9b64 8b3d 8a31 da3d
00000070: cca3 eebc 7fda 8f3d 09d7 333e 0737 1a3d
00000080: 73f3 443c 0a0c fd3d 18db 20be 5e5a 95be
00000090: 44ac 2fbe 66cd 55bd 2f58 37be 5164 c4ba
000000a0: 1ae5 b2bd f9f4 dcbc 75b5 fc3d f710 af3d
000000b0: b494 183d ac26 e83c 01f6 66bc 2ebe 09bb
000000c0: 090b 11be ddcf 8dbc 245b 343e 6e34 61be
000000d0: c1c3 d7bd 7bc6 95be 80c9 bc3d e08b fa3a
000000e0: cfc3 0abe f6ca 01be 09f3 24bd afd7 79bd
000000f0: 1a8d 8f3d 518a 66bd a468 133d 9113 af3b
00000100: 1152 edbd 6fa2 24bd 93ff 903d 26f0 a0bd
00000110: 4bf9 67be cc79 073e d199 85bd 265e c13d
00000120: 3db0 2bbe f053 9dbd c00c 54be cb46 2ebd
00000130: c408 1a3c bc3a f3bd 8ceb 6ebc b810 ea3d
00000140: fef1 643e 1b33 263e 26b3 f9bd 9783 bbbb
00000150: 866c 043e 1111 733d 13f6 c63c 7cd5 a23d
00000160: 5b14 c6bd 7a33 103d aa1a 233e 12b7 cf3c
00000170: 5534 8e3c 8e20 033d c8a6 05be 61a8 05bc
00000180: f73e d53d 51d4 903c 8ebb 743d 29bc 66be
00000190: dd64 903d be7f fe3d 3282 00bd 5a7d 86bd
000001a0: 1c5b bebc cf1d f93b cbf1 aebd 87b0 113e
000001b0: d84b 1ebe 59ab 61bd 11d6 df3d 0b4b af3b
000001c0: 5bf6 f1bc 8b00 44be b881 cabd 896e 83bd
000001d0: 3199 103d 4ab2 c3bc da2e 9f3c 7645 cabd
000001e0: 4fb7 293d af31 a7bc 5e5e 063e 4a76 d03c
000001f0: 5046 38be e24c b9bd 7269 a9bc 03ad 85bc
00000200: 453d dbbd 394f 35be 292f 11be 3fb0 babe
00000210: aee8 f23d 87c4 0abc e3c4 a43d d3d6 86bc
00000220: d3df 55be aacf 9cbc 4aad 0cbd 715e f9bd
00000230: 7bfd 85bd 8832 163e 4966 8f3d c6d9 a8bd
00000240: 0867 263d 679c 5dbd 1c52 9d3c b926 a73d
00000250: 1fad 92be 493d 80bd 752f bebd 9195 52bd
00000260: cc33 093d 201a 32bc 10d6 2d3d 4b95 19bd
00000270: ba0a e03d f391 3fbd 0306 cebd 8e1a 81bb
00000280: 58c3 e2bd 039f b3bc 0c81 45be 0abf 45be
00000290: 68e8 a5bd fc4f 5cbd 110f 5dbd 680c 293e
000002a0: 416e 35bd 8a3e 94be c699 6bbb 06f0 ea3d
000002b0: 1612 6abd 14f0 953b 6cab 7aba fc6f f43d
000002c0: 7713 2e3e df97 17be b972 133b b58d a03d
000002d0: af83 b8bc 98d3 ae3d 7219 f43d 4c44 3bbc
000002e0: 7c94 0cbe e07d e5bd 43c7 993c 5b96 b23d
000002f0: a415 a83d a014 bd3d b83a 00be 32a4 9cbe
00000300: 16c3 063e 010d 9bbd 2975 b33c 920f 5dbe
00000310: 8e69 9fbd 0c62 ef3d 79d1 e7bd 9bc1 9abc
00000320: ab30 fabd f028 bf3d 26c8 23bc 0fd2 64bc
00000330: 450d c6bd 7d26 aebd 4e21 943c 7b5c a13d
00000340: ac25 343c 1bc4 473c 9b6f fe3d 8acc 55bd
00000350: 68c4 23be 66c8 813d f80f 7d3c b36c 56bc
00000360: af04 02be c34f 59be e743 9a3b a6de 70bb
00000370: 8aa0 1dbd eb17 933d 3421 7c3d 777d 983d
00000380: 12a0 813c def5 84be 9ccc 323c 9816 e73d
00000390: c441 d7be 27a8 0fbd 67bb 5bbd bdad 843c
000003a0: 1fcb 893d 551f a53d 893f db3d f241 48bd
000003b0: 0252 4b3c c06a a93c 96a2 3f3d 6a8d f73c
000003c0: e71d 043e 164c 4ebc 297e 0ebd 79d2 68bc
000003d0: b364 afbb aaed c6bd d348 923d ab4d 2bbe
000003e0: 87b7 a23d 62ba 443e 05ee 1cbe 7fb7 cfbd
000003f0: e754 6fbc f514 bdbd 6494 be3d 70dc b93d
0.2106398 0.1304858 0.013859114 0.060048502 -0.2210798 -0.31263545 -0.1167022 0.006224133
0.10678178 0.04252894 -0.040024605 0.07103703 -0.013002016 0.0046618055 -0.052794896 0.022355618
-0.05223587 -0.113807134 -0.04786084 -0.17545708 -0.0795494 0.01772247 -0.030553851 -0.07213224
-0.06224029 -0.004186278 0.06806298 0.1065398 -0.029130839 0.07024097 0.17562498 0.037650134
0.012020933 0.12355812 -0.15708578 -0.29170507 -0.17155558 -0.052197836 -0.17904733 -0.001498351
-0.08735104 -0.02697228 0.12339298 0.08548158 0.03725119 0.028338753 -0.014096738 -0.0021017897
-0.14164366 -0.017311031 0.17612892 -0.21992657 -0.10535384 -0.2925299 0.092181206 0.0019115172
-0.13551258 -0.1267508 -0.04027084 -0.060996708 0.07009335 -0.056284253 0.035988465 0.0053429087
-0.115879185 -0.04019397 0.07079997 -0.07858305 -0.22653691 0.13230056 -0.06523479 0.094417855
-0.16766448 -0.076820254 -0.20707989 -0.042547982 0.009401504 -0.11876437 -0.014582526 0.1142897
0.22357938 0.16230433 -0.12192373 -0.005722474 0.12932023 0.059342448 0.02428726 0.07950875
-0.09671851 0.035205342 0.1592814 0.02535585 0.017358938 0.03201347 -0.13051903 -0.00815782
0.104124 0.017679365 0.05974918 -0.22532715 0.07050488 0.12426709 -0.031374164 -0.06566878
-0.023236804 0.0076024304 -0.08542212 0.14227496 -0.1545862 -0.05509505 0.10929502 0.005349522
-0.029536417 -0.19140832 -0.09888023 -0.06417567 0.035302345 -0.023888726 0.01943152 -0.0987653
0.041434582 -0.020409433 0.13121936 0.02544703 -0.17995572 -0.09047867 -0.020680163 -0.01631785
-0.107050456 -0.17706002 -0.14178146 -0.3646259 0.118607864 -0.008469707 0.08045366 -0.016459858
-0.20886163 -0.01914199 -0.03434495 -0.121762164 -0.06542488 0.14667714 0.07001931 -0.08244662
0.040625602 -0.054104235 0.019204192 0.08161683 -0.28647706 -0.06261689 -0.092863955 -0.05141217
0.033496663 -0.0108704865 0.042440474 -0.037495892 0.10939546 -0.046770047 -0.100597404 -0.003939933
-0.11072415 -0.021926409 -0.19287509 -0.19311157 -0.081009686 -0.053787217 -0.053969447 0.16508639
-0.0442946 -0.28953964 -0.003594981 0.11471562 -0.057146154 0.0045757387 -0.0009562287 0.11935422
0.16999613 -0.14804028 0.00224988 0.078395285 -0.02252373 0.08536452 0.11918916 -0.011429857
-0.13728517 -0.112056494 0.018771773 0.08720084 0.082072526 0.092324495 -0.125224 -0.3059402
0.13160357 -0.0757084 0.021906452 -0.21587971 -0.07783805 0.11688623 -0.113192506 -0.018891146
-0.12216314 0.0933398 -0.00999645 -0.0139660975 -0.096705 -0.08503435 0.018082287 0.078789674
0.01099531 0.012192751 0.12423631 -0.052197017 -0.15992892 0.06337051 0.015445702 -0.013087439
-0.12697099 -0.21221833 0.0047078016 -0.0036753803 -0.03848318 0.07182296 0.061555102 0.074458055
0.015823398 -0.25968832 0.0109130405 0.11283606 -0.42042363 -0.035072472 -0.053645518 0.016196126
0.067281954 0.08062617 0.10705478 -0.048891015 0.012409689 0.020680785 0.046785913 0.030218799
0.12902032 -0.0125913825 -0.034788284 -0.014210337 -0.0053525805 -0.097132996 0.07142796 -0.16728847
0.07945161 0.19211724 -0.15325172 -0.10142421 -0.014607645 -0.09232513 0.09305647 0.09075248

conv2.bias f4 [128]
00000000: 882a c73d 8427 3dbd c83a f13d 2d7c b9bc
00000010: 5179 033d b112 a43c 0b4e 7ebb e490 f23d
00000020: 127c b13d 04ed ec3c 7d7a 1cbe beb3 8e3c
00000030: d49f f13c e238 06bd e5a1 21bd 2e56 76bd
00000040: 3b5d f5bd 87da 48bd 4325 5fbd fedb 9ebd
00000050: 8647 5cbd 84b9 2c3e 72da b1bd a411 b73d
00000060: 099b 10be 2a8f cb3c cd83 37bd 652c e1bc
00000070: 547c a5bb ff47 e5bd c011 20bc 114a 003d
00000080: 693a 42bd f0f9 71bc 7837 3dbb e809 3ebc
00000090: a2b7 86bd 49db a3bd bbbb 04bd a309 973c
000000a0: 5464 2ebd bfb6 57bd 166c d3bc 0c63 e73c
000000b0: 235d a53d 27ee 23be 0e87 b23b 225c cfbd
000000c0: be6d 3abd a779 4a3d 20ec 8abb 9952 953c
000000d0: 7a67 963d 5c69 88bc 44f6 90bd dbad 0e3c
000000e0: 5f13 d4bd 1059 27bd 0852 3d3d d645 eabb
000000f0: 3afc cb3d 3be6 03be 8f4d c63d d2c1 06bd
00000100: 3abb ad3d d6ec acbd e3e5 0c3d 92fa a0bd
00000110: 5517 bdbd 8faa 9e3d 6f59 7abd 9353 06be
00000120: 8166 0abe fd64 e0bd 6aad b8bc 285f 8b3c
00000130: 2b6a 2dbd 3253 323c 8590 f2bd 000c d7bd
00000140: 4987 debd 043c 80bd 6323 37be d277 2fbd
00000150: 48d2 8a3d 2a94 aabe 0a67 c43d b251 0d3c
00000160: 0bea 18be 26c4 67bd 214c a9bd 3e09 8a3c
00000170: e15a 45be e4c2 79bd 221d 2bbd cd4d c33d
00000180: be47 f63b 48d1 08bd 8340 efbc 5d22 42bd
00000190: 34c0 3d3c add1 3bbd 20f9 34bd 434d babb
000001a0: 9be1 8dbd 1859 5dbd 3e9a 943d 64f4 9f3d
000001b0: d123 fc3c efde 1a3c 9913 32be 57ce d6bd
000001c0: 3f8d 5e3c 850b bf3c b323 033e 7715 fe3d
000001d0: be9d 153d 5de9 e5bd 3ee1 ed3d 5bfe aabd
000001e0: 9514 06bd 0913 ffbc bffe 1abe 5825 65bd
000001f0: 0725 82bc 4cf9 c43d 53d5 423d 558d 16bd
0.09724909 -0.046180263 0.1177879 -0.02264222 0.03209812 0.020028444 -0.0038803841 0.11844042
0.08666243 0.028921612 -0.152811 0.017419692 0.029495157 -0.03276909 -0.039461035 -0.06014078
-0.11980673 -0.04903653 -0.054478895 -0.07756804 -0.053779148 0.16867644 -0.08684243 0.089389116
-0.14121641 0.02484854 -0.04480343 -0.02748699 -0.0050502215 -0.11195373 -0.009769857 0.031320635
-0.047418986 -0.014769062 -0.0028872173 -0.0115990415 -0.06577994 -0.0800081 -0.032405596 0.018437212
-0.04257615 -0.052664515 -0.025808375 0.028245471 0.08074405 -0.16008817 0.0054482287 -0.10124995
-0.045514815 0.049432423 -0.004239574 0.018227862 0.07343955 -0.016651802 -0.070782214 0.008708443
-0.10355257 -0.04085642 0.04622081 -0.0071494384 0.09960218 -0.12880795 0.09682762 -0.032899685
0.08482976 -0.0844361 0.034398925 -0.078602925 -0.09232966 0.07747375 -0.061120447 -0.13117819
-0.13515665 -0.10956762 -0.022543628 0.017013147 -0.042337578 0.010884093 -0.11843971 -0.10500336
-0.10865647 -0.06261447 -0.17884593 -0.04283888 0.06778389 -0.33316165 0.09589966 0.008625435
-0.1493303 -0.056583546 -0.082664736 0.01685011 -0.19272949 -0.060976878 -0.04177583 0.09536324
0.0075158766 -0.03340271 -0.029205566 -0.047396053 0.011581469 -0.04585426 -0.044182897 -0.00568548
-0.069277965 -0.054040045 0.07255982 0.07810286 0.030778797 0.009452566 -0.17390288 -0.10488575
0.01358348 0.023320923 0.12806587 0.12406438 0.036527388 -0.11226151 0.11615227 -0.08349296
-0.032734472 -0.031137006 -0.1513624 -0.055943817 -0.015886797 0.09617862 0.047566723 -0.03675588

fc1.weight f4 [256, 256]
00000000: dbeb 213e 1f2e eb3d 0c3d 333e 1876 91bd
00000010: 25a7 babd 55e1 43be 9545 e6bd ca93 1b3e
00000020: 82c4 243d 6a6f dbbd 2403 f4bc 6e66 223d
00000030: 028e 2cbe 2dc0 11bd d879 e0bd ceda 11bd
00000040: 6543 dabd 06aa 263d 411c 113e 6001 553c
00000050: 4380 e43b 52c4 5e3d 711a d2bd fdbd d43d
00000060: 89ba 873d 1c84 003e 9d2b 4a3d 2d1c 10be
00000070: 0f85 5f3d 1bc5 88bc 6520 6dbe 00b5 533c
00000080: 4e30 2bbe 1086 93bc d3ea 0abe 7fb8 b7bd
00000090: 8bec 393c f8fe 2a3e 1c8a 713d 9abe 1a3d
000000a0: 5688 673d 04ed 44bc 0385 11bd 6bbc 0a3e
000000b0: 31e4 c93d 7615 a33d d99c ac3c 4cac 0fbe
000000c0: c830 14be 814b 9c3c 54e5 45be e98d 143e
000000d0: 9698 6cbd 250c 653e c4de 7a3d b2c3 fb3c
000000e0: cd48 3cbd 9042 b63e 7fa8 2abd 7b7e 413d
000000f0: 41c0 d83d 4f12 8b3c 090c 513d e724 c6be
00000100: 533a 133e 06db f63d 5159 773c fec2 0c3d
00000110: c8db 003d 1ea9 453d 019b c43c 435c c6bd
00000120: 122c 99bd 6a50 b8ba e618 eb3d 9132 383e
00000130: c152 2e3d b6c5 dfbc 5bf0 92be 0a61 0a3e
00000140: a0c5 82bc 94e9 a5bd c86d b13d c8c0 2c3d
00000150: e16b a33c fe57 02bc 25ca 8a3e db2e 2ebe
00000160: c8b0 3d3d d6fd fbbb a8e3 46bd 738d e4bc
00000170: 9edd a8bd 9259 f23c 3bc4 19bd 82ff a23d
00000180: f5b7 f03d 8af0 48bd f738 413d 4423 04be
00000190: ac67 e9bc e04c 073c 1080 89bb d87d 3dbe
000001a0: a2b4 8e3d ad4e dbbc 4d12 25bd c2b6 8dbd
000001b0: e955 63bd 90d9 7cbc ca6a 2fbe 5e67 a0be
000001c0: 7970 7abd fb17 053e aa64 a33c dcfc 67bc
000001d0: 3d07 55be 64b6 8bbd e0d4 d7bc 7497 213d
000001e0: 5300 6b3d c327 d2bd f8f3 6fbe 246c 123d
000001f0: 9712 173d 95fe 3cbc bdcf a0bc 4207 2dbe
00000200: aa8e 233b 63be 48be 6954 d13c 9243 82bc
00000210: b13a bcbd 14aa 3cbc 16e0 cb3d 0dcc 893d
00000220: f8eb 8cbd 3ae7 7b3b 008d 16be e591 47bd
00000230: 96ab 1b3e 4089 20be 918b 3c3d f8b2 bd3b
00000240: d46f 32bd afa4 413e 1454 113d a424 eabb
00000250: bfe9 0cbe 2033 c8bd 2f54 c1bd 58dc 0abe
00000260: b03f f23d 9dd6 773d 5e88 efbd ff08 ab3d
00000270: cc4e df3d 91bf 05bd a813 a73d 67dd b3bd
00000280: 9181 a33d eaf8 36bd 314d 2c3d 26ed ac3c
00000290: f1ec 6f3e 8ab1 bcbd afe9 7b3d 7e7a 263d
000002a0: 30db d63d 5085 63bd 3275 ab3b 1dba 3e3e
000002b0: eaa6 43be 658f 073d 0cfb 813d fba5 f6bd
000002c0: 58f6 063d 1e1e fb3d d850 0c3e f082 22be
000002d0: 1986 083e 15a2 b5bd 0090 7f3d 95aa d93c
000002e0: 1bd2 40bc 7d02 95bc c61c cabc fc3d 07bd
000002f0: 19b0 b8be 2bdf 003e 9420 2a3d 9a30 783d
00000300: fc93 93bd 899b 82bc f012 8ebd f4f0 003d
00000310: 64e7 353c e421 0fbd 6b85 d1bd 8c07 433d
00000320: aaa1 9a3d 2f77 a0bb 39ef 2e3d dd0c ccbc
00000330: 17af 34bd 3853 ce3d af8e 57bd 2d82 9e3c
00000340: b5c2 b8bd 8fab f5bd c5ce 603d a8b8 adbc
00000350: 4bd0 75bd 7705 603d 0899 a7be 7189 e63d
00000360: fd49 57bd 3b81 60bc ecce 643d b0ef c7bd
00000370: f24d f9bc f02d af3d b7a5 1d3d f714 04bd
00000380: 5207 19bc e742 9bbd ac81 c2bd eeef bbbd
00000390: ce78 47be 26db c03b e4e0 abbc 0d16 09be
000003a0: 3f71 9e3d 6bbc 31bd 7150 34be 17ac 1b3d
000003b0: 8eaa c0bd fcf4 5ebd fa79 db3d 106a 0bbc
000003c0: ce67 8f3d ce4a 2e3e c2ae 143c 6d61 9bbc
000003d0: 88b8 f0bd 6128 c23d 803c 2a3d 2cf6 883d
000003e0: d76b 5cba 4827 38bc 0273 863e 6054 83bd
000003f0: c95f 553d 5646 f9bd 5bc0 c5bc 8983 943c
0.15812628 0.11483406 0.17503756 -0.07102603 -0.091139115 -0.19128926 -0.112437405 0.15193096
0.040226467 -0.1071461 -0.029786654 0.039648466 -0.16851047 -0.035583664 -0.1096074 -0.03560906
-0.10657386 0.04068949 0.14170934 0.013000816 0.006973298 0.054386444 -0.102589495 0.103878
0.06627376 0.12550396 0.049358 -0.14073248 0.054570254 -0.01669555 -0.23156889 0.012921572
-0.16717646 -0.018008262 -0.13566141 -0.08970737 0.0113479 0.16698825 0.058969602 0.037779428
0.056526504 -0.0120194 -0.03552724 0.13548438 0.09857977 0.07963078 0.021070885 -0.1403057
-0.14471734 0.019078972 -0.19325763 0.1450726 -0.057762705 0.22367914 0.061247602 0.030732963
-0.045967866 0.35597658 -0.041664597 0.04723976 0.105835445 0.016976504 0.05103687 -0.3870003
0.14377718 0.12053494 0.015096978 0.034365647 0.0314596 0.048256986 0.023999693 -0.09685566
-0.07479109 -0.0014062051 0.114793584 0.1798804 0.04255939 -0.027315956 -0.28699002 0.1351358
-0.015963376 -0.08101192 0.08663517 0.042176038 0.019948902 -0.007955549 0.2710735 -0.17010061
0.04631117 -0.0076901717 -0.048556954 -0.02789948 -0.08245395 0.029583726 -0.037540656 0.079588905
0.11753837 -0.04905752 0.047173467 -0.12904078 -0.028491817 0.0082580745 -0.0041961744 -0.18505037
0.06968047 -0.026770914 -0.040300656 -0.06919624 -0.055501852 -0.01543273 -0.1713058 -0.31328863
-0.06114242 0.12997429 0.019945461 -0.0141594075 -0.20803542 -0.068218976 -0.026346624 0.039451078
0.057373356 -0.1026149 -0.2343291 0.035747662 0.036882963 -0.011535306 -0.019630307 -0.168973
0.002495686 -0.19603877 0.025552945 -0.01590136 -0.09190882 -0.011515159 0.099548504 0.06728373
-0.06880945 0.0038437382 -0.14702225 -0.04872312 0.15202174 -0.15677357 0.04603154 0.005789157
-0.04356368 0.18910478 0.035480574 -0.007145481 -0.13761042 -0.09775376 -0.09439885 -0.13560617
0.11828554 0.060507406 -0.11695932 0.08351325 0.10903701 -0.032653395 0.08158046 -0.087824635
0.07983697 -0.044670977 0.042065803 0.021109175 0.2343023 -0.092135504 0.061502155 0.04064416
0.104910254 -0.05554706 0.0052324766 0.18625684 -0.19106641 0.033095736 0.063467115 -0.12043377
0.032949775 0.12261604 0.13702714 -0.15870261 0.13332404 -0.08868805 0.06239319 0.026570598
-0.011768843 -0.018189663 -0.024671923 -0.033018097 -0.36071852 0.12585132 0.041534975 0.060593225
-0.0720596 -0.015943306 -0.06937206 0.03147979 0.011102531 -0.03494443 -0.102305256 0.04761462
0.07550366 -0.0048970203 0.04270861 -0.024908477 -0.04411229 0.100744665 -0.052626308 0.019349182
-0.090215124 -0.11995613 0.05488469 -0.021206215 -0.060013097 0.05469271 -0.3273394 0.112566836
-0.052560795 -0.013702686 0.0558614 -0.09762514 -0.030432675 0.08553684 0.038488116 -0.032246556
-0.009340124 -0.0758112 -0.09497389 -0.09176622 -0.19479677 0.0058854995 -0.02098126 -0.13387318
0.07736444 -0.04339258 -0.17608811 0.038005915 -0.09407531 -0.054432854 0.107166246 -0.008509174
0.07002221 0.17020723 0.009074869 -0.018967355 -0.117539465 0.09480358 0.041561604 0.066875786
-0.00084084034 -0.011239834 0.2625962 -0.06412578 0.0520933 -0.12171619 -0.024139574 0.018129127

fc1.bias f4 [256]
00000000: b496 6c3d 91fd bb3d 60e1 08bd 61a7 693d
00000010: 53f8 c1bc 1061 0cbe a65b f73c 39a3 383d
00000020: 00e0 083e d1a7 783d 0d26 33bc 703b cc3d
00000030: a4be eb3d f68b b3bc 3746 743d 5fb9 6dbd
00000040: 39ae 2abd 9fc0 8b3c eba1 f33d 74ff dc3d
00000050: e9a8 7a3d 31d3 0e3e fe30 96bc f342 1e3d
00000060: 3955 c13c 7d7c 923d 5dfb c4bd c463 b13d
00000070: a08b 503d 98fe 903d 326d 11bd 155f 9cbd
00000080: 0d03 223e b8f2 02bd bd79 33be 9780 0c3e
00000090: 0937 45bd d566 8abd 0e51 6ebd 61f8 473d
000000a0: 793d c0bd 3467 043e 8505 e9bd 08db b9bd
000000b0: 954f fa3c f0a7 96bd 4bab d73c c031 463d
000000c0: 5e13 2b3e 47d2 babc e4d8 bf3d cdf4 d5b9
000000d0: 247b 3dbb 65bb cbbd 234a 023e 8ea6 a7bc
000000e0: 8561 bbbc 905d 663d 8f94 c5bc 1036 0ebe
000000f0: 9259 21bd 7132 d53d 33c0 07bc feb4 0fbe
00000100: a044 343e 09eb c4bd d5e6 1bbd 2189 79bd
00000110: e662 773d a680 b83a 3ef7 3b3d a163 1b3e
00000120: 9bc0 1f3e 07ea 153e 98f0 f9bc b402 8f3d
00000130: e53d f7bd 007e eb3d f8c0 dc3b 56f0 e4bd
00000140: 17e1 043e c7f9 d73d ac0b c83b bcf4 333b
00000150: c18b babb 3225 3bbd 5f3c 233e 912c fdbc
00000160: 3bd2 e13d e793 023e af02 423d b473 06bd
00000170: 8034 4b3d 145b cf3c d02f 7a3e d8aa 403c
00000180: 3d6a 06bc 4208 8dbd 6230 b7bd 66bd 1bbb
00000190: d805 043d 7409 793c be7d 32be 851e d9bc
000001a0: 194c 273e f837 86bd b54b 273e e5a7 bd3d
000001b0: ad2c cfbd 4308 64bb 954c a03c efdb 1d3d
000001c0: ff7d ca3b 3455 ddbd d55d 39bd 6556 bcbd
000001d0: c6a6 703e 29b8 4d3d ed95 2f3e 6b68 d43d
000001e0: 58b6 6f3d e388 573d c8e0 f53b 1ebc 5fbb
000001f0: 5c33 2d3d f28d 743d 3a29 e9bd 6d52 4dbd
00000200: 8bbd 9b3d 9bf2 4b3d 4070 ef3c f6ef 8a3d
00000210: a3b6 b33d 2e2d 703d 22e7 563d 81ac 9a3d
00000220: 693a 993d da73 7dbd fdd1 ae3d e1bd eabc
00000230: d42a 06bd cf4c 91bd 4140 75bd ef16 aa3d
00000240: 8234 5d3d 9432 7f3e 2cc9 15bd 78c0 4abe
00000250: 61d6 a73c a65b 2e3e 9890 f3bd 7085 073d
00000260: 1156 1cbd fbf7 b93d 475a 8e3d b95d 88bb
00000270: fedd 6f3d efc5 1d3e 5935 233d 8101 32be
00000280: cafa eebd 5ec3 2f3e 0d71 b93d 641e aebd
00000290: 5d62 543e 5d15 a63d c1ef bf3d dcbe 673d
000002a0: 027a 8cbc 7f07 f3bb 8b8f abbd 77e9 d8bd
000002b0: b693 39bd e153 f23d aa3e 933c 7031 a13c
000002c0: 2c0e a03d 9697 0a3e 2444 bc3d 8820 4f3d
000002d0: 7feb c1bd 1e26 963a 1f17 4b3c ef9f 883c
000002e0: f9fe dfbd 98a2 65bc 76c9 053d c04a 5cbc
000002f0: 5060 8d3d af8f 8fbd 5a5e 393c c9e6 433b
00000300: 1f33 dc3d 967b 99bd 67e3 153d ee97 a83d
00000310: e490 77bd d799 313d 15e9 d53c 69dd eb39
00000320: 739b f7ba adb6 6f3e e806 a23c e582 a23c
00000330: 4337 173d f16d e43d b366 8f3d 9266 653c
00000340: 61a8 123e 097b a7bc 0a57 eb3d d330 223c
00000350: fdad 54bc c3b1 01be ba56 afbc b62a 65bd
00000360: 9dc3 ee3d 9431 703d 593c 2dbe 3d6d fe38
00000370: 2c74 0d3b 30c1 aa3d 5140 91bc c266 603d
00000380: eca3 50bc 4f07 9a3d da66 cdbd 47a3 fdbc
00000390: de85 92bc fc11 e93d c548 013d 0b3e bf3d
000003a0: afd9 233e dbf0 2e3c 98ed 38bd 767d a5bd
000003b0: df62 763d a42c ab3d efd9 a23d 5187 a73c
000003c0: 82c4 a4bd 4a9f b13c 7789 a03d db87 c43c
000003d0: 89f9 c13d de06 85bc 60c0 053e 5971 c4bd
000003e0: 9459 f13d 7335 32bd b2be 3dbd 8832 313d
000003f0: 8c3e 963b 4858 8a3d 191f a53d 4b7a 57bd
0.05776091 0.09179223 -0.03341806 0.05704439 -0.02367798 -0.13708901 0.030195069 0.045077536
0.13366699 0.060706917 -0.010934365 0.09972274 0.11510971 -0.021917325 0.059637275 -0.05803811
-0.041670058 0.017059622 0.11896118 0.10790911 0.06119624 0.1394775 -0.018333908 0.038638067
0.023600208 0.071526505 -0.09618256 0.08661607 0.050914407 0.0707981 -0.035504527 -0.07635323
0.15821476 -0.031969756 -0.17526908 0.13720928 -0.04814819 -0.06757895 -0.05818277 0.048820857
-0.09386725 0.12929994 -0.11378006 -0.0907498 0.030555526 -0.0735625 0.026326796 0.04838729
0.16706607 -0.022805346 0.093675405 -0.00040808917 -0.002891251 -0.09947852 0.12723593 -0.020465162
-0.02287365 0.056241572 -0.02411869 -0.1388781 -0.03939206 0.104100116 -0.00828557 -0.14033887
0.17604303 -0.09615142 -0.038061935 -0.060921792 0.06039705 0.0014076426 0.045890085 0.15174724
0.15600817 0.14640056 -0.030510232 0.069829375 -0.12072352 0.11498642 0.006736871 -0.11178653
0.1297649 0.10545688 0.006104907 0.0027459105 -0.0056929295 -0.04568977 0.15940998 -0.03090504
0.110264264 0.12751733 0.04736584 -0.032825187 0.049610615 0.025311984 0.24432302 0.011759482
-0.00820404 -0.06886341 -0.08944775 -0.0023764013 0.032232136 0.015200008 -0.1743078 -0.02650381
0.16337623 -0.06553644 0.16337474 0.09260539 -0.10115943 -0.0034794963 0.019567767 0.038539823
0.0061795707 -0.10807267 -0.0452555 -0.09196166 0.23501119 0.050224457 0.17147036 0.10371479
0.058523506 0.05262078 0.0075036027 -0.0034139226 0.04228531 0.059705682 -0.113848165 -0.050127435
0.07604512 0.049791913 0.02922833 0.0678405 0.087750696 0.058636837 0.05246652 0.07552434
0.07481844 -0.061878063 0.08536146 -0.028654994 -0.032755688 -0.07094728 -0.05987573 0.083051555
0.054005153 0.24921638 -0.036568806 -0.19799984 0.020487966 0.17027149 -0.118928134 0.03308624
-0.038168017 0.09080502 0.06950813 -0.0041615632 0.058561318 0.15407537 0.0398458 -0.17383386
-0.11668928 0.1716437 0.09054766 -0.0850189 0.20740648 0.081095435 0.09371901 0.056578502
-0.017148022 -0.007416665 -0.08376988 -0.10591405 -0.045306884 0.11832405 0.017974216 0.019676894
0.07815203 0.13534388 0.09192684 0.050568134 -0.094687454 0.0011455452 0.012395649 0.016677825
-0.10937304 -0.014015816 0.03266283 -0.013445556 0.06903136 -0.07009827 0.011313999 0.0029892197
0.10751938 -0.07494275 0.03659382 0.08232103 -0.060440913 0.043359604 0.026112119 0.00044987656
-0.0018890932 0.23409529 0.019778684 0.019837806 0.036917936 0.11153782 0.0700201 0.014001505
0.14322044 -0.02044441 0.11491211 0.009899336 -0.012980935 -0.12665467 -0.02140366 -0.055948935
0.11658404 0.05864103 -0.16917552 0.00012132011 0.0021584136 0.08337629 -0.017730864 0.054785497
-0.0127343945 0.07520925 -0.10029383 -0.030961646 -0.017886098 0.11380383 0.03156354 0.09338006
0.16001008 0.010677542 -0.045148462 -0.080805704 0.060152885 0.08358124 0.07951724 0.020450266
-0.080452934 0.0216824 0.07838719 0.023990562 0.09471423 -0.016238626 0.13061666 -0.09591932
0.11784664 -0.043508004 -0.04632444 0.04326108 0.004585093 0.067551196 0.08062572 -0.052606862

fc2.weight f4 [5, 256]
00000000: 0d93 f8bd 0312 543e 94e6 543e 9781 1d3d
00000010: 7e26 14bf 89fd 3ebf a039 263e 736f 253e
00000020: d54c 89be 296b 3a3e fbc1 dcbe cd34 9fbc
00000030: 5e6c 4d3e 91ec 8dbe d16a 593e 3db9 ba3d
00000040: a037 1fbd a434 333c c79c 59bd 00fa 80be
00000050: e5bf cabe 1659 9abe a3fb c43d 41df 00be
00000060: 6f78 14bf 5e7f 853d 7a82 b93d c5e9 c03d
00000070: 4776 fabe c548 533e 9be1 093e 28ce 783e
00000080: e8fb bc3d 6ab6 23bd 7d4a 733d ca90 293e
00000090: d870 943d e058 afbe 3245 44be 7842 873d
000000a0: 12a6 083f ef38 81be 36cb ea3d 5649 5ebc
000000b0: 778c 153d 7b43 973e 32b9 8b3d 5dbb 6f3c
000000c0: efe4 32be 6e79 1bbd 4f34 dc3d e581 06bf
000000d0: 44da 803d c3fe d13d c23a 7d3d 024c f93d
000000e0: 1c7f 68be 3561 e43d e264 a83e a669 843e
000000f0: 9971 31be 2fd9 443e c613 333d ec3d 373e
00000100: 96be 873e f0ec 8bbd 71a0 a93d 20a3 bcbd
00000110: 60a8 a5bd 34e0 483e 0db1 28be 197c 94be
00000120: e60b 0dbe 6c6c 38bd 84e6 adbe 90cd b8be
00000130: 45bd d73d 021a 373d 6cc8 10be ca7d eb3b
00000140: 97e1 25be 1e94 9c3d 797f 8b3d a9c8 b8be
00000150: 7258 90be 12df a4bc ebd7 033e 933a 803d
00000160: c2e5 533e ca99 96be 1992 553d af39 08bf
00000170: 89aa 02bd 4b44 fb3c fa8b a03e ec09 ff3d
00000180: f654 a5bd fcf0 6e3e 7d0b d0bd d6f1 98be
00000190: 7685 c93d 3f7f 04bd 453b ba3c 955f a4be
000001a0: 00e2 283e 8dac 913d 1d35 d0be bc18 c93e
000001b0: 6551 9ebd 2eef cebe e632 d6bd 2230 59be
000001c0: e313 40be 87e6 d23e 6673 813e a34c 1c3d
000001d0: caea ae3e d27f 80be e4dd ffbe e183 073e
000001e0: 8ff7 75be 2311 353e 1195 0b3e 42a0 3abe
000001f0: 9d22 a83e d792 ef3d 7ea6 3d3d e50c ccbe
00000200: 988a 2ebd 837f 083e 7435 fdbd 746d 4abe
00000210: c77f 96bd a47f ef3d 5089 a6be 36ff c3bc
00000220: 70fa 473e ebe2 fabb 55ac e93d 27a0 bcbe
00000230: a3ee 29be 3270 12bd 8b2d cb3d 930d d9bd
00000240: 2190 093e ee19 913e c015 043d 3e13 ddbe
00000250: c016 5cbe 8ad8 b3be 45e6 d0be 0347 93be
00000260: fa76 9c3e 7d03 973e 7571 973e a53e b03d
00000270: 9d73 1e3e 354e 923e 55e8 e83d 8bfe 3c3d
00000280: 7096 d5bd b0dc 1fbc 49b9 913e 1096 00bf
00000290: e679 efbe f4d8 d43d 42c5 a5bc 21c6 ca3d
000002a0: ac92 ad3d 4a53 4eba 3d67 0e3e 2471 9fbd
000002b0: 8660 4b3d edad d2bd 1ae5 6abe 546f d9bd
000002c0: 58a8 b5be 04f1 c53d 6e83 9abc 33d6 14be
000002d0: 8b37 483e b14d 7a3e b9e1 103d 318e 5c3e
000002e0: e228 303c 6132 e13b 3cbf 04be e939 5cbd
000002f0: 5564 68be 47ea 7a3d d287 cfbd 4524 c8bd
00000300: 8482 823d c384 e43e c870 a9bd ee34 303d
00000310: 4bfd d6bd 519f cc3d 2cc2 f53d f920 d8be
00000320: 200e 0fbe 62d2 823e 7e0c a33d f1c2 473e
00000330: 54d4 b8be a0be 6e3d 865d dabd 52f4 28bf
00000340: 92ab 2dbe 9f3c c13d 3ae7 dfbb 5475 883c
00000350: 88d8 edbe fc50 91be 444b 4cbe 2f83 dfbe
00000360: afd2 263c 8d9b 25bd b53e 623e b5f5 0ebe
00000370: fca2 bc3e c7ad 5cbe d6b7 a8bd 8ee0 60bd
00000380: 233c d93c d39e d33d 7f59 45bd 50a2 f23c
00000390: 9e6a 21be e03a 173c 570a 1e3e 8f8d 14be
000003a0: 445a 7a3d ec3f a83d 08b3 6ebe 9f4b 173f
000003b0: 1a4a 1fbe e020 4f3d 7998 1fbe 0a05 163d
000003c0: 8a31 2d3e 5db7 b43e 22d5 8ebe 41da fa3c
000003d0: 7906 1e3d 7e41 a83e 1f64 9bbc 69f7 c23e
000003e0: 1e42 58bd 71fa b03d 805c 16bf 3c3d c23d
000003f0: 94bf 153e 1d0c 2a3e b555 533c 9417 77bd
-0.12137423 0.20709996 0.20791084 0.038453665 -0.57871234 -0.74605614 0.1623292 0.16155796
-0.2681643 0.18204941 -0.43116745 -0.019434357 0.2006087 -0.27719548 0.21232153 0.09117363
-0.038871408 0.0109378435 -0.05312803 -0.25190735 -0.3959953 -0.30146092 0.096183084 -0.12585165
-0.5799627 0.06518434 0.090580896 0.09419588 -0.48918363 0.20633228 0.13464968 0.24297392
0.09227735 -0.039968885 0.05939721 0.16559139 0.07248086 -0.34247494 -0.19167021 0.06604475
0.53378403 -0.2523875 0.11464541 -0.013567289 0.03651091 0.2954367 0.068224326 0.014632073
-0.17470144 -0.0379576 0.107521646 -0.52541953 0.06291631 0.1025367 0.061823614 0.121727005
-0.22704738 0.11151353 0.32889467 0.25861853 -0.1732849 0.19223474 0.04372003 0.17894715
0.26512593 -0.068323016 0.08282555 -0.09210801 -0.080887556 0.19616777 -0.1647379 -0.2900093
-0.1377407 -0.045025274 -0.33964932 -0.36094332 0.10534147 0.044702537 -0.14138955 0.007186626
-0.16199337 0.076454386 0.06811423 -0.36090592 -0.28192478 -0.0201259 0.12875335 0.06261172
0.20693114 -0.29414207 0.052141283 -0.5321302 -0.031900916 0.030672213 0.31356794 0.12453064
-0.08072846 0.23334116 -0.10158441 -0.29872006 0.09839909 -0.032347914 0.02273334 -0.32104173
0.16492462 0.071129896 -0.40665522 0.39276683 -0.077303685 -0.40416855 -0.10458927 -0.21209767
-0.18757586 0.41191503 0.25283355 0.038159024 0.34163505 -0.2509752 -0.49973977 0.13233902
-0.24020217 0.17682318 0.13631083 -0.18225196 0.32838908 0.11697929 0.046301357 -0.39853588
-0.042612642 0.13329892 -0.12363711 -0.19768316 -0.0734859 0.116942674 -0.32526636 -0.023925405
0.19529128 -0.0076564453 0.11409823 -0.36840937 -0.16594939 -0.03575153 0.09920796 -0.10598292
0.13433887 0.28340095 0.032247305 -0.43178743 -0.21493053 -0.35126144 -0.40800682 -0.28765115
0.30559522 0.2949485 0.29578748 0.086056985 0.1547379 0.28575292 0.11372439 0.04614119
-0.10429084 -0.009757206 0.28461674 -0.5022898 -0.4677269 0.10392943 -0.020235661 0.09901071
0.08475241 -0.00078706874 0.1390657 -0.07785252 0.0496526 -0.1028708 -0.22938958 -0.10616937
-0.3548 0.09665111 -0.018861499 -0.14534836 0.19552438 0.244437 0.035371516 0.21538617
0.010751935 0.0068724607 -0.12963575 -0.053766165 -0.22694524 0.06125858 -0.101333275 -0.09772543
0.0637255 0.4463254 -0.082734644 0.043019228 -0.104975305 0.09991325 0.11999926 -0.42212656
-0.13970232 0.25551134 0.07961367 0.19507958 -0.36099494 0.058287263 -0.106623694 -0.65997803
-0.1695998 0.09435391 -0.0068329843 0.016657509 -0.46454263 -0.283821 -0.19950587 -0.43654773
0.010182067 -0.040431548 0.22094233 -0.13960917 0.36843097 -0.21550666 -0.08238189 -0.054901652
0.026517933 0.10333028 -0.048181053 0.029618412 -0.15763327 0.0092303455 0.15433632 -0.14507125
0.06112124 0.08215317 -0.23310483 0.59099764 -0.15555611 0.05056846 -0.15585507 0.0366259
0.16913429 0.35296145 -0.27896982 0.03062165 0.03858039 0.32862467 -0.01896864 0.38079384
-0.05279743 0.08641518 -0.58734894 0.09484336 0.14623863 0.16606183 0.012898852 -0.06032522

fc2.bias f4 [5]
00000000: 1a37 7fbd 0b33 db3b c228 183d ce0f 0abd
00000010: ca04 d33b
-0.06230841 0.0066894344 0.037148245 -0.03370648 0.00643978
