tools/AI_models/Mixed/MixedClassifier/trained_models/mlp_model.pth (torch, 42140 bytes, 6 tensors)

fc1.weight f4 [128, 9]
-0.24965017 0.2525691 0.1608996 0.120175794 -0.0029334254 0.16008869 0.20496736 0.3338076
-0.18843514 -0.11287772 0.28735614 0.17439714 0.32720536 0.1399884 0.42270574 0.35156736
-0.19527158 0.3689919 -0.08114175 0.15812764 -0.32650003 0.3727825 -0.036114637 -0.049655978
0.25185975 0.33386683 -0.30190176 0.13739842 -0.2457933 0.051723354 0.036033127 0.07006637
-0.39821485 -0.20851439 0.22521527 0.40942836 -0.3434487 -0.3576455 0.09151664 -0.18785197
0.011584889 -0.28620747 0.15529335 -0.21499693 0.3599935 0.040689513 -0.3419112 0.066395365
0.15420152 0.17310077 0.13991629 0.42006338 -0.34121254 0.028848879 0.17527553 -0.11852672
0.36504433 -0.46555755 0.024367621 -0.5145227 0.11059567 0.30168372 0.37358248 0.062316697
0.43769392 0.2593136 0.28212398 0.20282355 -0.28568527 -0.10973459 -0.30763507 0.26562348
0.35145107 0.2884992 0.2318135 0.39761126 0.13328357 0.13922179 -0.56538063 0.3047415
-0.091808416 -0.14131135 0.48947343 0.015323108 -0.30889553 0.012312359 0.17115231 -0.49678445
-0.40313298 0.13716438 0.31437165 -0.16082743 0.23805307 0.38983577 0.24031135 -0.099678576
-0.03250349 -0.17502324 0.0474112 -0.6843574 0.1697891 0.619985 0.21005888 0.08167965
0.032247268 0.06586347 0.18484421 0.038665745 -0.06433001 0.46371013 -0.6138734 -0.24707995
0.3538272 0.11554569 -0.59469 -0.06190464 0.060156483 -0.42776912 -0.1760794 -0.6027409
-0.26139233 0.36575788 -0.07823375 0.19684257 -0.11891135 -0.27430525 -0.30139956 0.2066434
-0.30138582 0.43392333 0.19935721 0.26861978 -0.08987327 0.34329888 0.6342277 0.24223018
-0.0007159804 -0.28546724 0.016232042 -0.101249106 -0.007162346 0.2083915 -0.30601245 0.5226467
0.034875393 -0.12890618 0.2187074 -0.09620985 0.16509868 -0.4594507 0.026143102 0.12858169
0.26026908 0.2715623 -0.2664223 -0.8263592 0.30250844 -0.03860319 0.31811115 0.29147756
0.21068814 0.24957903 0.16416456 -0.11366681 -0.37521243 0.13019669 -0.010230737 0.4986133
0.29245028 -0.20622025 0.24816364 0.25042033 -0.2443524 0.27275226 0.09425945 -0.021128397
0.20152728 -0.5063432 -0.12760153 0.38728762 -0.504171 -0.09674228 -0.38283744 -0.071379036
-0.08189783 0.20142227 -0.31339642 0.20520855 0.5296429 -0.25138283 -0.002741931 -0.3063185
0.23519118 0.0007670905 0.09410581 0.32344002 -0.3270907 0.12893854 -0.16534409 -0.16399789
0.26080742 -0.052902866 0.15571487 0.13435467 0.2500672 0.27909097 0.5777835 0.4072488
-0.6748467 0.10064567 -0.22492221 -0.034678143 -0.022560807 0.25653043 0.2316598 0.26326615
0.2822283 0.17308043 -0.056092065 0.5168704 0.10354668 -0.42051673 -0.0010039558 0.22802535
-0.23211376 0.7279187 -0.7716101 0.04659445 0.103220075 0.015595916 -0.00956696 -0.37249637
-0.015928699 0.2517922 0.12046112 -0.056550585 0.14830181 0.08768955 0.15930775 0.4148728
-0.6497244 -0.028125409 0.40604904 0.023179436 0.23620422 -0.09747529 0.38428408 -0.1005715
0.24968942 -0.17868714 0.27730504 0.4940795 -0.11583691 0.27273682 -0.22930364 -0.14685698
00000000: 4ba4 7fbe bd50 813e ddc2 243e ba1e f63d
00000010: b63e 40bb 4aee 233e f7e2 513e d4e8 aa3e
00000020: 24f5 40be 6f2c e7bd 5820 933e 2a95 323e
00000030: 7687 a73e 1e59 0f3e e36c d83e a300 b43e
00000040: 46f5 47be 82ec bc3e a52d a6bd 36ec 213e
00000050: 032b a7be 59dd be3e f1ec 13bd 1164 4bbd
00000060: c3f3 803e 98f0 aa3e de92 9abe 2cb2 0c3e
00000070: 3db1 7bbe dedb 533d 7997 133d f57e 8f3d
00000080: d1e2 cbbe cc84 55be d59e 663e 98a0 d13e
00000090: 82d8 afbe 501d b7be 136d bb3d 445c 40be
000000a0: 8cce 3d3c c989 92be 3805 1f3e 2828 5cbe
000000b0: 1151 b83e 0caa 263d fc0e afbe 4bfa 873d
000000c0: 01e7 1d3e 5441 313e 3746 0f3e 8c12 d73e
000000d0: 69b3 aebe 7c54 ec3c 6e7b 333e 23be f2bd
000000e0: 17e7 ba3e 8f5d eebe 9b9e c73c c2b7 03bf
000000f0: fc7f e23d 4a76 9a3e 3446 bf3e cb3f 7f3d
00000100: 6b19 e03e c1c4 843e 8e72 903e fab0 4f3e
00000110: 5745 92be 87bc e0bd 5882 9dbe cdff 873e
00000120: 65f1 b33e 2bb6 933e 8560 6d3e b493 cb3e
00000130: 7d7b 083e 2890 0e3e c9bc 10bf 1407 9c3e
00000140: 0d06 bcbd ecb3 10be 439c fa3e c60d 7b3c
00000150: 8e27 9ebe c7b9 493c 8d42 2f3e 885a febe
00000160: 7267 cebe d274 0c3e 52f5 a03e f2af 24be
00000170: 2fc4 733e 8e98 c73e 2e14 763e 4824 ccbd
00000180: 6122 05bd 4b39 33be 3f32 423d 0c32 2fbf
00000190: 32dd 2d3e 56b7 1e3f ad19 573e a947 a73d
000001a0: b615 043d 6de3 863d cd47 3d3e f95f 1e3d
000001b0: 74bf 83bd 6a6b ed3e cf26 1dbf 8702 7dbe
000001c0: d728 b53e 38a3 ec3d 9b3d 18bf b88f 7dbd
000001d0: a566 763d 8e04 dbbe 294e 34be 3a4d 1abf
000001e0: 37d5 85be 9e44 bb3e 0439 a0bd 1991 493e
000001f0: cb87 f3bd bd71 8cbe 0b51 9abe 549a 533e
00000200: 3e4f 9abe 332b de3e 4c24 4c3e 8888 893e
00000210: 7a0f b8bd dfc4 af3e bf5c 223f 300b 783e
00000220: a2b0 3bba c328 92be 0ff9 843c b15b cfbd
00000230: 1db2 eabb 9564 553e aaad 9cbe 2dcc 053f
00000240: 80d9 0e3d fbff 03be d5f4 5f3e ab09 c5bd
00000250: a10f 293e 1f3d ebbe 0f2a d63c ebaa 033e
00000260: fd41 853e 370a 8b3e 8168 88be 478c 53bf
00000270: 63e2 9a3e 611e 1ebd 77df a23e 8c3c 953e
00000280: a2be 573e a591 7f3e c11a 283e 25ca e8bd
00000290: d81b c0be 4852 053e d29e 27bc 3e4a ff3e
000002a0: 0bbc 953e 672b 53be 9c1e 7e3e 1837 803e
000002b0: 8437 7abe 2fa6 8b3e 190b c13d 7615 adbc
000002c0: 2b5d 4e3e b59f 01bf faa9 02be 904a c63e
000002d0: 5a11 01bf d120 c6bd 4503 c4be 2c2f 92bd
000002e0: 0dba a7bd a441 4e3e 7f75 a0be 3122 523e
000002f0: ad96 073f 40b5 80be f8b1 33bb c7d5 9cbe
00000300: f5d5 703e 9216 493a 8cba c03d ee99 a53e
00000310: 6f78 a7be 7708 043e f64f 29be 10ef 27be
00000320: 8d88 853e adb0 58bd b873 1f3e 4594 093e
00000330: cf08 803e 03e5 8e3e 9fe9 133f ea82 d03e
00000340: c1c2 2cbf 511f ce3d 0252 66be ab0a 0ebd
00000350: 71d1 b8bc f557 833e 3a38 6d3e d2ca 863e
00000360: 3a80 903e ff3b 313e cbc0 65bd 9e51 043f
00000370: 4810 d43d f84d d7be 2b97 83ba 7a7f 693e
00000380: 3baf 6dbe e158 3a3f 3d88 45bf d2d9 3e3d
00000390: 0c65 d33d 0386 7f3c bdbe 1cbc d8b7 bebe
000003a0: e77c 82bc e8ea 803e 52b4 f63d 96a1 67bd
000003b0: 6edc 173e 9496 b33d 9221 233e 356a d43e
000003c0: 5754 26bf 4267 e6bc a9e5 cf3e cde2 bd3c
000003d0: 85df 713e 20a1 c7bd e2c0 c43e 6ef8 cdbd
000003e0: 95ae 7f3e c3f9 36be edfa 8d3e fdf7 fc3e
000003f0: e73b edbd 29a4 8b3e 93ce 6abe ad61 16be

fc1.bias f4 [128]
0.03770911 -0.14287974 0.14140674 -0.0064852466 0.041774683 -0.538137 -0.343509 -0.042097006
-0.07223029 -0.020812782 -0.21837994 -0.18701659 -0.3866124 -0.50122905 0.2349648 0.28448707
0.2024362 -0.2115093 0.0056331004 -0.390316 -0.1798928 -0.17892653 -0.2614517 -0.024753537
0.043763615 -0.10078787 -0.32280645 0.19677441 0.1024545 -0.08968669 -0.016418833 -0.43071482
0.2555578 0.042420845 0.015930781 -0.1892824 0.23699416 -0.027211592 -0.35202757 0.024808004
-0.14063199 -0.13217102 -0.39871222 -0.36369905 -0.39737055 0.18827477 0.2967867 -0.066045016
0.037414823 -0.15061797 0.0944557 0.1315736 0.103804395 -0.2574719 -0.12905784 -0.3320018
-0.5310754 -0.050278835 -0.13129443 -0.26277265 -0.16798279 0.061872598 -0.019666824 -0.2409409
0.12632246 0.07210942 -0.32124606 -0.13808456 -0.56146413 0.19775745 -0.09061185 0.25548795
0.15258308 0.08769101 -0.09801855 0.10569308 0.21975793 -0.47416714 -0.113755554 -0.4890353
-0.0725661 -0.18215866 -0.032567497 -0.018310223 -0.06296268 -0.06687292 -0.45301604 0.086276986
-0.5076005 -0.124166794 0.012656215 -0.03615949 0.121557415 -0.23227267 -0.10221091 0.07423842
-0.2981619 0.111652836 -0.35688695 0.039618995 -0.08680053 -0.18631993 -0.008096557 -0.103850625
-0.15555269 -0.16456196 -0.30940223 -0.47080135 -0.44474515 0.31726372 -0.413567 -0.14997266
-0.37771288 -0.27103275 -0.21766604 -0.3129274 -0.44972986 0.11719733 -0.27769804 -0.11769863
0.14561756 -0.28683594 -0.36215633 0.17162783 0.021816604 -0.36301938 -0.76841253 -0.0457095
00000000: de74 1a3d 114f 12be eecc 103e 3182 d4bb
00000010: ee1b 2b3d 59c3 09bf 69e0 afbe e96d 2cbd
00000020: 79ed 93bd 917f aabc fe9e 5fbe 4781 3fbe
00000030: 0ff2 c5be 8c50 00bf 9d9a 703e 4aa8 913e
00000040: 6f4b 4f3e e595 58be df95 b83b 80d7 c7be
00000050: d135 38be 8438 37be ffdc 85be eec7 cabc
00000060: 7a41 333d df69 cebd e346 a5be 3b7f 493e
00000070: aad3 d13d a8ad b7bd ca80 86bc a786 dcbe
00000080: 79d8 823e 7bc1 2d3d 4581 823c 3fd3 41be
00000090: 99ae 723e d8ea debc f53c b4be 283a cb3c
000000a0: d501 10be d757 07be 0224 ccbe c336 babe
000000b0: 2774 cbbe 1acb 403e 6df4 973e 9c42 87bd
000000c0: 4940 193d 993b 1abe fd71 c13d 3bbb 063e
000000d0: 6697 d43d 5bd3 83be bd27 04be 24fc a9be
000000e0: 8ff4 07bf 2ef1 4dbd 0c72 06be 238a 86be
000000f0: ae03 2cbe 1f6e 7d3d 521c a1bc 36b9 76be
00000100: ad5a 013e 1bae 933d 5d7a a4be 0a66 0dbe
00000110: 1dbc 0fbf ee80 4a3e b592 b9bd 51cf 823e
00000120: bd3e 1c3e 5897 b33d f3bd c8bd 9d75 d83d
00000130: 3908 613e 09c6 f2be acf8 e8bd d662 fabe
00000140: 899d 94bd cd87 3abe 7f65 05bd 52ff 95bc
00000150: 94f2 80bd abf4 88bd b8f1 e7be fdb1 b03d
00000160: 1bf2 01bf 294b febd 035c 4f3c f91b 14bd
00000170: 18f3 f83d e3d8 6dbe f453 d1bd 500a 983d
00000180: ada8 98be 3eaa e43d e3b9 b6be 8747 223d
00000190: 7ac4 b1bd a7ca 3ebe 6ca7 04bc a3af d4bd
000001a0: 3449 1fbe ee82 28be f869 9ebe e00c f1be
000001b0: a3b5 e3be 6470 a23e 0ebf d3be 6f92 19be
000001c0: 9563 c1be cec4 8abe d9e3 5ebe 0538 a0be
000001d0: fe42 e6be 2705 f03d 702e 8ebe fb0b f1bd
000001e0: c51c 153e 29dc 92be 8e6c b9be 35bf 2f3e
000001f0: bcb8 b23c addd b9be afb6 44bf e239 3bbd

fc2.weight f4 [64, 128]
0.0401356 -0.18041588 0.060835723 0.1388251 0.01256773 -0.024850547 0.14085509 -0.15981784
0.17632142 0.015196467 -0.15548259 -0.028634448 -0.3177842 -0.14102641 0.08155145 -0.12623835
0.0044295248 0.07061073 0.025911747 -0.11326028 -0.19469483 0.074762814 -0.013664759 0.10115342
0.07424673 0.06290523 -0.038811907 0.0024124694 -0.02354487 0.09532885 0.021066755 -0.10462882
0.024858363 -0.15249383 -0.24215764 0.41988504 -0.029159361 0.012810736 0.09223485 -0.1105766
0.008725961 0.045333687 -0.03566549 -0.025195856 -0.074397825 0.051099453 -0.02398421 0.13714907
0.07253236 -0.081829295 0.14365111 0.042307198 -0.013550641 -0.111412846 -0.042848464 -0.20298694
0.2853827 0.098074734 0.025047345 -0.42540672 -0.22427595 -0.050769247 -0.17313671 -0.0475762
0.072555214 0.034963224 0.031012425 -0.08010659 -0.13712195 -0.12283699 -0.16155928 -0.010750755
-0.070322156 0.19451794 0.03127979 -0.13421148 0.010022145 0.44858333 -0.081060015 -0.0051679406
0.18531998 0.10582844 -0.20652615 -0.036460523 -0.08076346 0.10045322 -0.3840734 -0.10972252
0.15604585 0.04486592 0.042485166 -0.33965063 0.057545394 0.1236935 0.20588222 -0.12338464
-0.15291324 0.122589074 0.20086828 0.053229805 -0.18072352 -0.19277726 0.20401047 -0.032182038
-0.1599569 -0.18438669 0.25412497 -0.14105387 0.09071109 0.07367585 0.086719304 0.1268072
-0.043616805 0.29602078 0.1813027 0.10228687 -0.31534174 0.06258194 0.0041645584 -0.07149126
0.036666915 -0.02584621 -0.12536442 0.09821101 0.10772096 0.06437638 0.14996235 -0.16301888
-0.57429504 0.19327858 -0.05361223 0.11857452 0.08972373 0.35296252 -0.020823522 -0.07092167
-0.006359877 0.04676697 -0.29010376 -0.39176956 0.37575507 -0.0021374284 0.06466938 -0.006721917
0.09301579 -0.5458856 -0.05686128 0.14187117 0.056355175 0.05262674 0.13616845 -0.17678492
-0.017218959 -0.10606538 0.122898355 -0.007326625 0.079939835 0.10815162 -0.31954464 -0.17415772
-0.03452873 -0.02921821 0.06881667 -0.15409927 0.11333862 -0.042682502 0.010154278 0.17906956
-0.21944906 -0.2806074 0.06338983 -0.097452246 0.08060757 -0.010114172 -0.231736 -0.09879358
0.19746013 0.21063912 -0.017455965 -0.0024620395 -0.07780933 0.08214434 0.092174396 0.11411251
-0.7065263 -0.104761004 -0.09958655 -0.29358566 0.011545391 0.021923294 0.06392666 0.119745895
-0.056213245 0.08780739 0.04358909 0.034934957 -0.052747134 0.04767135 -0.23579119 0.041006804
0.036442235 -0.0750406 -0.038838547 -0.041638535 0.014620104 -0.4293348 0.042628884 0.21259856
0.0893994 0.04015532 0.115038864 -0.17634492 0.0013724294 0.023211354 -0.01011408 0.019630343
-0.51645863 -0.122601986 0.04894641 0.07631497 0.042244766 0.0715876 0.1559002 0.03951207
-0.13271801 -0.23918901 -0.15216932 0.068595126 0.0006530355 0.20716318 0.18194802 0.0046086875
0.020540284 0.12938643 -0.34096992 -0.2347472 -0.45352897 -0.10999966 0.43016437 0.026759345
0.01623015 -0.3499935 -0.18334289 -0.062376823 0.11668432 -0.1140557 0.12498743 0.062473565
-0.07804582 0.038479134 -0.5828232 -0.1579776 0.05426673 -0.50858676 -0.15182275 -0.06592754
00000000: 3a65 243d f1be 38be e12e 793d 2b28 0e3e
00000010: e1e8 4d3c 6093 cbbc 513c 103e 4aa7 23be
00000020: 9a8d 343e 9afa 783c d436 1fbe ca92 eabc
00000030: 9cb4 a2be 3a69 10be 7204 a73d a044 01be
00000040: 8c25 913b 5c9c 903d df44 d43c 01f5 e7bd
00000050: 155e 47be 3f1d 993d 27e2 5fbc 8629 cf3d
00000060: ab0e 983d 75d4 803d 3cf9 1ebd 851a 1e3b
00000070: 2ce1 c0bc c63b c33d 3094 ac3c a347 d6bd
00000080: c4a3 cb3c 5827 1cbe 2cf8 77be 2cfb d63e
00000090: 9ddf eebc 1fe4 513c a0e5 bc3d fc75 e2bd
000000a0: 55f7 0e3c d1af 393d fa15 12bd 8a67 cebc
000000b0: e35d 98bd a94d 513d 897a c4bc ce70 0c3e
000000c0: d98b 943d 1e96 a7bd 4719 133e 504a 2d3d
000000d0: 8203 5ebc 6b2c e4bd df81 2fbd cfdb 4fbe
000000e0: ae1d 923e 68db c83d 1730 cd3c e9ce d9be
000000f0: 98a8 65be 6af3 4fbd c04a 31be 43df 42bd
00000100: d497 943d 9935 0f3d c50d fe3c ed0e a4bd
00000110: b269 0cbe f691 fbbd cc6f 25be ef23 30bc
00000120: 1005 90bd b62f 473e 3d1f 003d bc6e 09be
00000130: ec33 243c b7ac e53e cb02 a6bd d457 a9bb
00000140: 85c4 3d3e 95bc d83d 977b 53be a157 15bd
00000150: 5067 a5bd 6bba cd3d 45a5 c4be 33b6 e0bd
00000160: 7cca 1f3e 54c5 373d ed04 2e3d b0e6 adbe
00000170: b8b4 6b3d 0553 fd3d cad2 523e 16b1 fcbd
00000180: 4a95 1cbe fb0f fb3d 6ab0 4d3e 7f07 5a3d
00000190: 960f 39be 6767 45be 1fe8 503e 50d1 03bd
000001a0: becb 23be ddcf 3cbe ab1c 823e 6d70 10be
000001b0: bcc6 b93d 5de3 963d e499 b13d bfd9 013e
000001c0: 89a7 32bd 0990 973e 6aa7 393e c77b d13d
000001d0: 7974 a1be f62a 803d d976 883b 026a 92bd
000001e0: 0c30 163d 6ebb d3bc 885f 00be db22 c93d
000001f0: cf9c dc3d c3d7 833d bb8f 193e 6cee 26be
00000200: 0005 13bf d2ea 453e 7f98 5bbd 33d7 f23d
00000210: 13c1 b73d 81b7 b43e 1796 aabc 613f 91bd
00000220: 8466 d0bb b98e 3f3d 7b88 94be 0596 c8be
00000230: f862 c03e 1914 0cbb 6171 843d 8743 dcbb
00000240: 107f be3d 29bf 0bbf 60e7 68bd ad46 113e
00000250: afd4 663d 238f 573d be6f 0b3e 1b07 35be
00000260: c60e 8dbc ce38 d9bd 22b2 fb3d 2f14 f0bb
00000270: 7fb7 a33d 997e dd3d 5b9b a3be 6756 32be
00000280: ff6d 0dbd 075b efbc c1ef 8c3d 33cc 1dbe
00000290: 141e e83d d9d3 2ebd 215e 263c 035e 373e
000002a0: 41b7 60be c6ab 8fbe 87d2 813d 0b95 c7bd
000002b0: 9515 a53d e9b5 25bc 344c 6dbe 4a54 cabd
000002c0: fd32 4a3e c8b1 573e d0ff 8ebc 2b5a 21bb
000002d0: 7f5a 9fbd 4b3b a83d eec5 bc3d d2b3 e93d
000002e0: e8de 34bf f08c d6bd 08f4 cbbd dc50 96be
000002f0: e128 3d3c 7b98 b33c fbeb 823d 563d f53d
00000300: dc3f 66bd 5cd4 b33d 798a 323d f517 0f3d
00000310: 610d 58bd 0943 433d 3f73 71be c0f6 273d
00000320: 7444 153d e3ae 99bd 2b15 1fbd 2b8d 2abd
00000330: 2989 6f3c c5d1 dbbe a09b 2e3d 70b3 593e
00000340: 0817 b73d e879 243d 7f99 eb3d c393 34be
00000350: 17e3 b33a bd25 be3c 87b5 25bc d0cf a03c
00000360: a236 04bf c016 fbbd 087c 483d 064b 9c3d
00000370: d908 2d3d 859c 923d 4da4 1f3e 69d7 213d
00000380: 3be7 07be f7ed 74be 46d2 1bbe 9a7b 8c3d
00000390: 7830 2b3a 9622 543e 9550 3a3e 7904 973b
000003a0: 1944 a83c e07d 043e 9c93 aebe 9261 70be
000003b0: f334 e8be 8047 e1bd 813e dc3e 6a36 db3c
000003c0: 17f5 843c 5932 b3be 3dbe 3bbe d77e 7fbd
000003d0: 30f8 ee3d 0996 e9bd 69f9 ff3d 48e4 7f3d
000003e0: 7dd6 9fbd 4c9c 1d3d e733 15bf e1c4 21be
000003f0: ca46 5e3d be32 02bf 6c77 1bbe 0505 87bd

fc2.bias f4 [64]
0.07573164 -0.030412627 -0.13364369 -0.09906618 0.21257272 -0.011227085 0.117244564 0.014514257
0.04414767 0.24940695 -0.11728092 0.06660674 0.314738 -0.10029032 0.17535225 0.10654204
0.28902593 0.16585729 0.0027370292 0.0014193329 0.058075797 0.23734304 -0.058637325 -0.010488769
0.29196924 0.2517959 -0.10462229 0.08266799 0.27119142 0.05428451 0.020955607 -0.11181485
0.124679394 -0.23918274 0.11867046 0.18336225 -0.2663627 -0.16164427 -0.053131413 0.048839577
0.20856398 0.15583171 0.08905072 0.0067690453 0.12237365 0.15976857 0.1630454 0.10739031
0.054075014 0.24681544 0.12367961 -0.064879306 -0.09196573 -0.0025837105 0.08726101 0.09436414
0.19519447 0.0015612392 0.28340888 0.06795472 0.27201235 -0.023302495 0.2974762 0.272841
00000000: 3119 9b3d e723 f9bc e4d9 08be 36e3 cabd
00000010: aaac 593e cff1 37bc eb1d f03d 35cd 6d3c
00000020: 30d4 343d 8964 7f3e fb30 f0bd 1d69 883d
00000030: 5725 a13e 0365 cdbd 8a8f 333e b732 da3d
00000040: 35fb 933e 7ed6 293e bb5f 333b e908 ba3a
00000050: e3e0 6d3d 0e0a 733e b12d 70bd 16d9 2bbc
00000060: fe7c 953e 64eb 803e 3644 d6bd d64d a93d
00000070: 9ad9 8a3e 6f59 5e3d 18ab ab3c 2fff e4bd
00000080: e957 ff3d 52ec 74be 8009 f33d 50c3 3b3e
00000090: b160 88be 1386 25be 53a0 59bd 020c 483d
000000a0: cc91 553e 5992 1f3e 3960 b63d dece dd3b
000000b0: 099f fa3d 5f9a 233e 60f5 263e 73ef db3d
000000c0: c37d 5d3d 30bd 7c3e bc4b fd3d 71df 84bd
000000d0: 8758 bcbd 7853 29bb e7b5 b23d fc41 c13d
000000e0: 0fe1 473e 7fa2 cc3a f81a 913e d82b 8b3d
000000f0: 3445 8b3e e0e4 bebc cd4e 983e d1b1 8b3e

fc3.weight f4 [5, 64]
0.13949682 -0.4493805 -0.04049551 -0.27686533 0.3967213 -0.5271848 0.335667 0.18030512
-0.8051287 -0.29774278 -0.3513872 0.07653183 -0.7136465 -0.17519644 0.17319535 -0.08542927
-0.3779735 -0.42756245 0.19894895 0.09075409 0.12097032 -0.33367527 -0.16828148 0.08831328
0.43068558 0.14752002 0.53542316 -0.05392944 0.11860562 0.09142757 0.09691518 0.32250348
0.22732739 0.25300908 -0.2299589 0.05079187 -0.45026276 -0.24019645 0.023079865 0.38021663
0.14380631 -0.26756683 0.1472937 0.1446009 0.17813124 -0.20295954 0.13260257 0.1550302
-0.777419 0.25165805 0.09350288 0.04662427 0.075275235 0.30904287 0.5405228 0.16029799
0.05620782 0.36647362 -0.057752922 0.007668454 -0.35773024 0.11532408 -0.3417788 0.34040818
-0.68515366 -0.10528627 -0.8147828 -0.07885422 0.47116223 0.18295568 -0.4226175 -0.3957368
0.21329525 -0.060282446 -0.31721205 0.4971608 0.306453 -0.3039495 -0.08031668 -0.24416344
0.3345579 0.6155411 0.04230033 -0.92257243 -1.0270792 0.24664849 -0.4884721 -1.0878392
0.30161017 0.097520545 -0.7491436 0.029305918 1.0303555 -0.87510467 -0.81054205 -0.5444946
0.7538298 0.21672785 0.6693299 -0.93379575 0.24574825 -0.62205434 -0.6906713 0.43939757
0.47889423 -0.27310598 -0.7038446 -0.14865762 0.5290247 0.45469955 0.21928425 -1.0843133
0.28774494 0.06288968 -0.85760045 -0.6111617 -1.1934261 -0.1763091 0.20860498 0.43267435
0.44411436 0.21959917 -0.5866913 -0.47654772 0.09066667 -0.33883902 0.44644192 0.29179877
-0.10145082 0.49013564 0.49458542 -0.27388734 -0.60317945 0.55884606 -0.15784244 -0.5389873
-0.11984606 0.48259282 0.2258806 -0.68676084 0.13874151 0.4118074 0.08350166 -0.8941566
0.1759216 0.29817912 -0.5595193 0.07740494 -0.010102225 -0.55318195 0.18435837 0.09631102
-0.22421487 0.2925193 -1.0170714 0.055889565 -0.99244696 0.098841816 -0.025977952 0.09996932
-1.1389184 -0.3074483 -0.23283882 0.1899838 -0.8398161 0.2884818 0.4020817 -0.23755518
-0.68398345 -0.027160404 0.1609651 -0.6376777 0.099754155 0.32388765 -0.76085573 0.3330507
0.14259294 -0.039679807 -0.33022165 -0.2998965 -0.1722596 -0.19448712 -0.35985482 -0.82503116
-0.28158563 0.13101545 0.1931914 0.6982532 -0.47236657 0.039734803 -0.75759137 0.10958253
0.00628432 -0.36285356 0.18468966 0.52569085 -0.16021198 -0.13052893 0.4505002 0.15400155
0.39301366 0.09254981 -0.22182585 -0.5318007 -0.2592423 -0.1820751 -0.7215774 0.45956346
-0.49519548 0.055218108 0.0818495 -0.26529285 0.1767329 0.2630127 0.0640873 0.10814414
-0.3087602 -0.6851952 0.25537047 0.31278974 -0.7491874 0.10672812 0.08471004 0.23258454
-0.47161007 -0.61363137 -0.6706332 0.16738594 0.019113556 0.15865637 0.07466122 -0.32791615
0.047953617 0.618187 0.008837995 0.17999686 -0.5919295 -0.07825396 -0.04218491 -0.32043236
-0.105767794 -0.8069221 0.32433683 0.11331449 0.03392106 0.39158213 -0.4184487 -0.19519512
-1.016928 -0.54156137 0.47580746 -0.30215535 0.1757794 -0.30883247 0.2919751 -0.4371475
00000000: 41d8 0e3e 3315 e6be 9fde 25bd 4bc1 8dbe
00000010: 0e1f cb3e 95f5 06bf 8cdc ab3e e8a1 383e
00000020: ea1c 4ebf be71 98be 06e9 b3be b8bc 9c3d
00000030: 89b1 36bf b266 33be 1f5a 313e 8bf5 aebd
00000040: be85 c1be 77e9 dabe 46b9 4b3e 48dd b93d
00000050: 4abf f73d 7cd7 aabe fb51 2cbe 98dd b43d
00000060: d282 dc3e 7d0f 173e 7e11 093f 1ee5 5cbd
00000070: 81e7 f23d 613e bb3d 777b c63d 2d1f a53e
00000080: 83c8 683e 688a 813e 597a 6bbe 230b 503d
00000090: d788 e6be 0ff6 75be fc11 bd3c c1ab c23e
000000a0: f641 133e 85fe 88be 29d4 163e 4212 143e
000000b0: 0968 363e a0d4 4fbe f8c8 073e 3dc0 1e3e
000000c0: ee04 47bf 53d9 803e 707e bf3d 17f9 3e3d
000000d0: e729 9a3d de3a 9e3e b45f 0a3f 2825 243e
000000e0: 2c3a 663d 6ea2 bb3e 548e 6cbd a847 fb3b
000000f0: 6b28 b7be 082f ec3d a2fd aebe fb49 ae3e
00000100: 3b66 2fbf 54a0 d7bd 9b95 50bf 527e a1bd
00000110: 2d3c f13e bc58 3b3e 5261 d8be 049e cabe
00000120: 126a 5a3e baea 76bd 9e69 a2be dc8b fe3e
00000130: 68e7 9c3e 459f 9bbe 127d a4bd fb05 7abe
00000140: 2c4b ab3e 1a94 1d3f 1c43 2d3d b52d 6cbf
00000150: 5577 83bf 6c91 7c3e 0419 fabe 513e 8bbf
00000160: a66c 9a3e dab8 c73d e0c7 3fbf f712 f03c
00000170: b0e2 833f dc06 60bf af7f 4fbf 0064 0bbf
00000180: fdfa 403f e8ed 5d3e 3459 2b3f 3d0d 6fbf
00000190: 6ea5 7b3e f43e 1fbf d6cf 30bf b8f8 e03e
000001a0: a031 f53e 8cd4 8bbe 292f 34bf b439 18be
000001b0: 2a6e 073f 61ce e83e 0d8c 603e c7ca 8abf
000001c0: 4e53 933e 4ecc 803d b48b 5bbf 1875 1cbf
000001d0: 30c2 98bf 5f8a 34be 8b9c 553e 7e87 dd3e
000001e0: f562 e33e 9bde 603e 6731 16bf 10fe f3be
000001f0: 72af b93d 4f7c adbe 0994 e43e a666 953e
00000200: 73c5 cfbd 0ff3 fa3e 4d3a fd3e f63a 8cbe
00000210: f869 1abf 8910 0f3f 73a1 21be 12fb 09bf
00000220: da71 f5bd 6816 f73e 3e4d 673e 8fcf 2fbf
00000230: 4112 0e3e 6bd8 d23e eb02 ab3d 72e7 64bf
00000240: cb24 343e efaa 983e a83c 0fbf 7b86 9e3d
00000250: cd83 25bc 559d 0dbf 71c8 3c3e b63e c53d
00000260: 9598 65be 17c5 953e 652f 82bf 75ec 643d
00000270: 0111 7ebf 946d ca3d b7cf d4bc b7bc cc3d
00000280: 14c8 91bf dd69 9dbe 4d6d 6ebe 1d8b 423e
00000290: 30fe 56bf e3b3 933e a7dd cd3e aa41 73be
000002a0: 8a19 2fbf 7f7f debc 09d4 243e d93e 23bf
000002b0: e84b cc3d 9ad4 a53e 71c7 42bf 9f85 aa3e
000002c0: e203 123e 4b87 22bd d012 a9be 098c 99be
000002d0: d264 30be a227 47be e43e b8be 3e35 53bf
000002e0: fe2b 90be ea28 063e f7d3 453e b9c0 323f
000002f0: 08da f1be f6c0 223d 82f1 41bf ce6c e03d
00000300: b2ec cd3b f1c7 b9be 491f 3d3e ad93 063f
00000310: 9c0e 24be 60a9 05be f6a7 e63e 95b2 1d3e
00000320: 1639 c93e c18a bd3d 5126 63be 1724 08bf
00000330: 68bb 84be e571 3abe 4cb9 38bf e74b eb3e
00000340: 438a fdbe 622c 623d b6a0 a73d 77d4 87be
00000350: 78f9 343e 9aa9 863e 3440 833d ad7a dd3d
00000360: d115 9ebe f468 2fbf ebbf 823e fa25 a03e
00000370: bfca 3fbf 4694 da3d 757c ad3d a42a 6e3e
00000380: e076 f1be f216 1dbf 9eae 2bbf 3867 2b3e
00000390: 0894 9c3c d176 223e fbe7 983d a0e4 a7be
000003a0: 036b 443d 8141 1e3f 3dcd 103c 1951 383e
000003b0: b188 17bf 9d43 a0bd 16ca 2cbd b60f a4be
000003c0: c99c d8bd 7292 4ebf 7a0f a63e 6d11 e83d
000003d0: cff0 0a3d 747d c83e e83e d6be 3be1 47be
000003e0: b22a 82bf c4a3 0abf 099d f33e 1bb4 9abe
000003f0: 84ff 333e 4a1f 9ebe c37d 953e ccd1 dfbe

fc3.bias f4 [5]
-0.36381793 0.20005186 0.12823273 0.09028525 0.02661608
00000000: 5846 babe 65da 4c3e 714f 033e 79e7 b83d
00000010: f709 da3c
